models/lr_ctr.onnx (onnx, 44835 bytes, 27 tensors)

sparse_weights.0.weight f4 [1000, 1]
-0.1959098 -0.21696238 -0.22953522 -0.16651374 -0.1725918 -0.21447526 -0.2148696 -0.21867162
0.015059001 -0.20614512 -0.39195377 -0.24471386 -0.18454204 -0.2116847 -0.10283263 0.18731001
0.16883478 -0.29249236 0.033499863 -0.038899884 0.04539842 -0.30736077 -0.38378876 -0.16117746
-0.18329398 -0.1705659 -0.27191103 -0.2620844 -0.24269794 -0.29073024 -0.21489285 -0.27240497
0.022669785 -0.06180723 0.06001595 -0.14716369 -0.14522439 -0.20096889 -0.38720083 -0.0072385473
-0.27037212 0.06235905 -0.24044347 -0.23069161 -0.18673502 -0.2468707 -0.22278206 -0.22249457
-0.2513508 -0.30537623 0.08068346 0.15298043 -0.17384402 -0.21273698 -0.12618329 -0.19764493
-0.13583337 -0.21414427 0.2693125 -0.45670426 -0.307963 -0.28010187 -0.2054369 -0.23204428
0.06845812 -0.3113954 -0.2368471 0.099188544 -0.24945977 0.2015042 0.083783865 -0.21090037
-0.2452973 0.16862327 -0.23068534 -0.1957745 -0.2023098 -0.2780097 -0.21162677 -0.33415475
0.1614242 -0.17741822 0.24771512 -0.13167238 -0.3253224 0.26064786 0.14225154 0.07283565
-0.18651278 0.06783582 -0.1713786 -0.15841919 -0.15004991 -0.21883582 -0.26415992 0.142224
-0.1917987 -0.27580646 -0.14282764 0.10254263 -0.17609519 -0.17420186 -0.21455954 -0.18612435
-0.1563833 0.010229806 0.100657985 -0.17759743 -0.2731568 -0.24020296 -0.2200248 0.035105355
-0.21039407 -0.20210384 -0.24414964 0.10716407 -0.20024951 -0.25839102 0.08783323 -0.20345289
0.031131439 -0.33510354 0.14913346 -0.34859154 -0.28583542 -0.18709062 -0.18994053 -0.2739754
-0.3930486 -0.22310336 -0.21657522 -0.23568425 -0.26653397 -0.22622734 -0.30644858 0.11775816
-0.24574015 0.0631934 -0.10848059 -0.17074738 0.10588132 -0.21298723 -0.20123251 0.13742305
-0.29822662 0.05351282 -0.2145775 -0.2287731 0.15302032 -0.19375265 -0.21637532 -0.28580207
-0.17638934 -0.10534442 -0.18054804 -0.15618439 -0.19671564 -0.1724536 -0.27025354 -0.13910085
-0.23346463 0.1373807 -0.3040517 0.12324122 -0.13299753 0.10843797 -0.01644462 -0.21287459
-0.24674734 -0.31271502 -0.15076162 -0.15043533 -0.34116668 -0.26561153 -0.26954454 -0.37356034
0.04240481 -0.19075553 -0.229207 0.17971754 -0.25276735 -0.1582472 -0.25148395 -0.24535069
-0.1450643 -0.262522 -0.18924281 -0.25610235 -0.17440152 -0.23629227 0.17638555 -0.18257819
-0.29807612 -0.28924608 0.105419494 -0.2397008 -0.20823212 -0.23100634 0.121157564 -0.2584663
-0.3165089 -0.32360172 0.035134207 -0.23534858 -0.26694536 -0.24907158 -0.2347889 0.107407264
0.027253449 -0.29798797 0.3174701 -0.24647696 -0.2236906 -0.25633743 -0.19349924 0.15410757
-0.24577928 -0.17784627 -0.23391852 -0.39798978 -0.15844588 -0.22921005 0.14333634 -0.13091365
0.13440418 0.016860686 -0.22982562 -0.2385762 -0.2228292 -0.26919192 -0.19613805 -0.22998126
-0.27227303 0.12344526 -0.2576983 -0.030075869 -0.37189412 0.14887978 -0.19633071 -0.22753714
-0.22160508 -0.2991791 -0.17576924 -0.15832257 -0.32425693 -0.33986712 -0.25599238 -0.2939019
-0.20954955 -0.2601168 -0.42624286 -0.36779526 -0.3180485 -0.20361815 -0.2601798 -0.38102192
00000000: 949c 48be 632b 5ebe 480b 6bbe 9482 2abe
00000010: e8bb 30be 679f 5bbe c706 5cbe 74eb 5fbe
00000020: 07ba 763c b517 53be 2aae c8be 4596 7abe
00000030: 97f8 3cbe e0c3 58be ea99 d2bd 32ce 3f3e
00000040: 06e3 2c3e 8fc1 95be 2737 093d 7c55 1fbd
00000050: b2f3 393d 645e 9dbe f67f c4be b40b 25be
00000060: 6bb1 3bbe d4a8 2ebe ec37 8bbe ed2f 86be
00000070: cf85 78be 98da 94be df0c 5cbe aa78 8bbe
00000080: fcb5 b93c 9429 7dbd 49d3 753d 14b2 16be
00000090: b4b5 14be caca 4dbe 303f c6be 5631 edbb
000000a0: 376e 8abe 346c 7f3d d036 76be 6c3a 6cbe
000000b0: 7737 3fbe accb 7cbe fb20 64be 9ed5 63be
000000c0: 0db1 80be 465a 9cbe 5f3d a53d e7a6 1c3e
000000d0: 2b04 32be b9d7 59be 3136 01be 6f63 4abe
000000e0: e717 0bbe a348 5bbe 54e3 893e 24d5 e9be
000000f0: 54ad 9dbe 8369 8fbe 0d5e 52be 049d 6dbe
00000100: c533 8c3d 386f 9fbe 0c88 72be 5d23 cb3d
00000110: 6272 7fbe 1e57 4e3e e096 ab3d 44f6 57be
00000120: 372f 7bbe 94ab 2c3e c738 6cbe 1c79 48be
00000130: 4d2a 4fbe 4a57 8ebe b0b4 58be 5516 abbe
00000140: 634c 253e 1fad 35be 08a9 7d3e 20d5 06be
00000150: a890 a6be a373 853e 63aa 113e db2a 953d
00000160: 35fd 3ebe 82ed 8a3d df7d 2fbe a438 22be
00000170: afa6 19be 7f16 60be f83f 87be 2ba3 113e
00000180: e166 44be 8136 8dbe 6941 12be df01 d23d
00000190: 4c52 34be f961 32be 7fb5 5bbe 6297 3ebe
000001a0: f222 20be eb9a 273c c625 ce3d 1adc 35be
000001b0: 35db 8bbe c4f7 75be 2e4e 61be a2ca 0f3d
000001c0: 8b71 57be 4ff4 4ebe 5d02 7abe d678 db3d
000001d0: 350e 4dbe d44b 84be e9e1 b33d f455 50be
000001e0: 5c07 ff3c b192 abbe 71b6 183e 977a b2be
000001f0: 0559 92be af94 3fbe c57f 42be 8146 8cbe
00000200: ab3d c9be 3575 64be e5c5 5dbe 3657 71be
00000210: 2477 88be 24a8 67be d4e6 9cbe 312b f13d
00000220: 4ea3 7bbe 8b6b 813d 122b debd 67d8 2ebe
00000230: 4ed8 d83d 5319 5abe e50f 4ebe a1b8 0c3e
00000240: 29b1 98be 4230 5b3d 34ba 5bbe 7f43 6abe
00000250: 5cb1 1c3e 1867 46be 7e91 5dbe a654 92be
00000260: 689f 34be d1be d7bd 96e1 38be cdee 1fbe
00000270: d36f 49be ad97 30be ac5e 8abe 7470 0ebe
00000280: 5a11 6fbe 87ad 0c3e aaac 9bbe e565 fc3d
00000290: 8130 08be ba14 de3d deb6 86bc ccfb 59be
000002a0: 56ab 7cbe 2f1c a0be 4161 1abe b80b 1abe
000002b0: 66ad aebe 3cfe 87be be01 8abe 4d43 bfbe
000002c0: abb0 2d3d 6b55 43be 3db5 6abe e007 383e
000002d0: b96a 81be 8e0b 22be 81c2 80be 363d 7bbe
000002e0: bc8b 14be 4969 86be dec8 41be d91f 83be
000002f0: 5096 32be 9af6 71be 6a9e 343e c7f5 3abe
00000300: 6f9d 98be 1018 94be 2de6 d73d 2074 75be
00000310: cd3a 55be ed8c 6cbe 7521 f83d b255 84be
00000320: 740d a2be 20af a5be e3e8 0f3d 38ff 70be
00000330: 10ad 88be 9f0c 7fbe 806c 70be 57f8 db3d
00000340: a042 df3c e191 98be 718b a23e 7564 7cbe
00000350: 260f 65be a93e 83be aa24 46be 60ce 1d3e
00000360: 90ad 7bbe 551d 36be 5688 6fbe 51c5 cbbe
00000370: a33f 22be 0ab6 6abe c3c6 123e 3a0e 06be
00000380: 40a1 093e 6c1f 8a3c 6857 6bbe 524d 74be
00000390: 562d 64be 86d3 89be 6ad8 48be 3580 6bbe
000003a0: 5f67 8bbe ded0 fc3d 08f1 83be ab61 f6bc
000003b0: e868 bebe f173 183e eb0a 49be 7fff 68be
000003c0: 71ec 62be 012e 99be dafc 33be 501f 22be
000003d0: 0105 a6be 1003 aebe 6f11 83be 4f7a 96be
000003e0: 2894 56be 072e 85be 813c dabe a94f bcbe
000003f0: 41d7 a2be 4781 50be 4936 85be 4e15 c3be

sparse_weights.1.weight f4 [500, 1]
-0.04228602 0.1289596 -0.29922852 -0.21908328 -0.03344108 0.20163997 -0.22220862 -0.26784688
-0.3386721 0.050035752 -0.20803894 -0.29757953 -0.009261784 -0.2777759 0.010567985 -0.36486933
-0.27541077 -0.19137271 -0.17040642 -0.264961 -0.25780576 -0.026901338 -0.04104274 0.08041162
-0.36871943 0.023663426 -0.194738 -0.27791452 -0.017705696 -0.27550238 -0.4258986 -0.364975
0.018942783 -0.0011543225 -0.26465663 -0.006207676 -0.30745623 -0.27432567 -0.22658597 -0.27193448
0.14333402 0.2660381 -0.0025361455 -0.07643328 -0.26249284 0.12982325 -0.25685945 -0.32831383
-0.35071337 0.0009460405 0.08184165 -0.3147652 -0.07213942 -0.25068375 0.14067541 -0.28711683
0.14547032 -0.23556328 -0.32698724 -0.009907513 -0.2628947 0.15612388 -0.022013433 -0.045697715
5.9124315e-05 -0.0013334753 -0.102950834 -0.2802148 -0.23492065 -0.2706165 -0.29687735 -0.29595646
-0.31646764 -0.35864675 -0.32867453 -0.3125954 -0.24275006 -0.22661605 0.00018128229 0.114976466
-0.384063 0.14004184 -0.009909063 0.13168265 0.34935418 -0.17765778 -0.30209446 -0.022674281
-0.25267744 -0.24061629 -0.34546733 -0.28192642 -0.30263814 -0.0393894 -0.30750084 -0.26012295
0.13754264 -0.32736528 -0.013549853 -0.013012804 0.29950145 -0.032615535 0.0017737714 0.2414172
-0.029738931 -0.22760686 -0.0023851572 -0.22011338 -0.029665528 -0.27090836 0.032963756 -0.3303277
-0.24568671 -0.28923845 -0.3486043 -0.30516592 -0.27937642 0.16217375 -0.37209845 0.078739636
-0.24712424 -0.0584066 -0.03942674 -0.24857935 0.031833574 -0.41924882 -0.22082713 -0.40461034
-0.37075502 -0.31617877 -0.33347446 -0.022050865 -0.30189434 -0.23065709 -0.3480434 0.06401288
-0.345481 -0.04696878 -0.25356624 -0.37202334 -0.33058035 0.07239506 -0.3748389 -0.26381442
0.056613296 -0.22083226 -0.31343514 -0.31195277 0.089299686 -0.009073251 -0.06456127 -0.29426458
0.08516493 -0.2560321 -0.28550756 0.31657594 -0.2846598 -0.30513263 -0.30663612 -0.34149575
-0.24050862 -0.01658326 0.21198052 0.011957153 -0.2622369 -0.39045453 -0.33195254 -0.018660206
-0.3373771 0.091919824 0.06764298 -0.0008260361 -0.3497282 -0.03530698 -0.37622193 -0.43149498
0.013638787 -0.035950277 -0.22655953 0.02851214 -0.29800412 -0.27064094 0.080250256 0.04375825
-0.05111361 -0.1745993 -0.24070239 -0.043427248 -0.34326538 0.18516831 -0.322024 0.14637817
0.08592303 -0.3821945 0.043248665 -0.31232992 -0.28924823 0.20526809 -0.32379484 0.11970038
-0.3163887 0.06477548 0.030409971 -0.36007425 0.15377347 -0.21668015 -0.050464362 -0.271826
-0.21551691 -0.2883974 -0.3043453 0.07106507 -0.2590939 0.06124269 -0.22102222 -0.32691506
-0.048328403 -0.35813347 0.0010669774 0.082973614 -0.4297541 -0.111725315 -0.28173727 0.15423441
0.0019405293 -0.25866464 0.00031323242 -0.2695418 -0.2631817 -0.3302875 -0.3187394 -0.3068017
-0.28580105 -0.508679 -0.29376343 -0.33690065 0.032185756 -0.0026158232 0.06354965 -0.24851489
-0.33128297 -0.206944 -0.058404174 0.015467733 0.024415659 0.04854883 -0.3819673 -0.48564458
0.18090464 -0.092877984 -0.24818893 0.15002792 -0.30667692 0.1699941 -0.42243287 -0.2578927
00000000: 1b34 2dbd fc0d 043e 7b34 99be 5e57 60be
00000010: 84f9 08bd b57a 4e3e a88a 63be 3a23 89be
00000020: 6e66 adbe 4af2 4c3d 2908 55be 585c 98be
00000030: bdbe 17bc a538 8ebe 5725 2d3c 27d0 babe
00000040: a402 8dbe 35f7 43be 057f 2ebe f8a8 87be
00000050: 1eff 83be 3260 dcbc 6f1c 28bd d9ae a43d
00000060: cbc8 bcbe cdd9 c13c 6669 47be d04a 8ebe
00000070: 890b 91bc a60e 8dbe 620f dabe 01de babe
00000080: e52d 9b3c a34c 97ba 1381 87be c369 cbbb
00000090: e76a 9dbe 6a74 8cbe 2706 68be ff3a 8bbe
000000a0: 27c6 123e 2536 883e 7635 26bb 0d89 9cbd
000000b0: 7665 86be 63f0 043e 1583 83be c018 a8be
000000c0: b490 b3be b4ff 773a 989c a73d e728 a1be
000000d0: d5bd 93bd 9f59 80be 370d 103e fa00 93be
000000e0: 2cf6 143e 8037 71be df6a a7be 1f53 22bc
000000f0: 229a 86be f0de 1f3e 8455 b4bc 872d 3bbd
00000100: 40fc 7738 02c8 aeba e3d7 d2bd 5078 8fbe
00000110: 0a8f 70be 3f8e 8abe 4f00 98be 9b87 97be
00000120: 0c08 a2be 8ca0 b7be 0748 a8be 810c a0be
00000130: 7993 78be 0a0e 68be 9816 3e39 c878 eb3d
00000140: e8a3 c4be 2167 0f3e 9f59 22bc d1d7 063e
00000150: 8dde b23e eceb 35be 20ac 9abe 6abf b9bc
00000160: f05e 81be 1e64 76be 18e1 b0be a958 90be
00000170: 63f3 9abe c856 21bd c070 9dbe d62e 85be
00000180: fad7 0c3e 6c9c a7be 3400 5ebc a833 55bc
00000190: 4158 993e de97 05bd e47d e83a 1236 773e
000001a0: 0f9f f3bc c611 69be 4c50 1cbb 6765 61be
000001b0: 1f05 f3bc 80b4 8abe 0105 073d b620 a9be
000001c0: 4c95 7bbe 1017 94be 437c b2be b53e 9cbe
000001d0: 6d0a 8fbe e010 263e b083 bebe 3f42 a13d
000001e0: 230e 7dbe c23b 6fbd ef7d 21bd 968b 7ebe
000001f0: ec63 023d c8a7 d6be 8220 62be 1629 cfbe
00000200: 9ad3 bdbe 2fe2 a1be 2abd aabe 04a4 b4bc
00000210: e591 9abe 5f31 6cbe bf32 b2be 2f19 833d
00000220: e3e2 b0be 5662 40bd 6fd3 81be d879 bebe
00000230: d441 a9be dc43 943d e2ea bfbe af12 87be
00000240: 58e3 673d da21 62be 927a a0be 46b8 9fbe
00000250: c1e2 b63d f9a7 14bc b338 84bd d9a9 96be
00000260: f36a ae3d a416 83be 0c2e 92be 3e16 a23e
00000270: eebe 91be 583a 9cbe 69ff 9cbe 88d8 aebe
00000280: e447 76be 9ed9 87bc 6c11 593e efe7 433c
00000290: ea43 86be a8e9 c7be aff5 a9be 4add 98bc
000002a0: b1bc acbe 7640 bc3d 6788 8a3d 588a 58ba
000002b0: 930f b3be 0d9e 10bd 29a0 c0be e9ec dcbe
000002c0: 3875 5f3c 9940 13bd 39ff 67be 4b92 e93c
000002d0: ff93 98be 7391 8abe 3f5a a43d da3b 333d
000002e0: 815c 51bd 29ca 32be b07a 76be c5e0 31bd
000002f0: 7bc0 afbe c39c 3d3e 54e0 a4be 29e4 153e
00000300: 6af8 af3d ffae c3be 8325 313d b5e9 9fbe
00000310: 5818 94be cc31 523e 70c8 a5be 7925 f53d
00000320: b3fd a1be 02a9 843d 551e f93c a75b b8be
00000330: cb76 1d3e 67e1 5dbe b8b3 4ebd c72c 8bbe
00000340: 77b0 5cbe d3a8 93be 26d3 9bbe 908a 913d
00000350: f5a7 84be 9dd9 7a3d a653 62be 6961 a7be
00000360: 01f4 45bd 455d b7be d2d9 8b3a 12ee a93d
00000370: bb08 dcbe 3ed0 e4bd de3f 90be a0ef 1d3e
00000380: 5c59 fe3a b16f 84be 5839 a439 6201 8abe
00000390: c0bf 86be 711b a9be d031 a3be 1d15 9dbe
000003a0: 8454 92be c938 02bf 2968 96be 3e7e acbe
000003b0: 36d5 033d 3b6e 2bbb 5226 823d b07a 7ebe
000003c0: ec9d a9be 21e9 53be 3739 6fbd 606c 7d3c
000003d0: 5903 c83c 23db 463d 3891 c3be 68a6 f8be
000003e0: 113f 393e d036 bebd 3d25 7ebe eba0 193e
000003f0: c204 9dbe ef12 2e3e 1f49 d8be 830a 84be

sparse_weights.2.weight f4 [200, 1]
0.028450474 -0.103193335 -0.38877645 -0.44141236 -0.079331174 -0.36191937 -0.05586767 -0.037164815
0.03581631 -0.36506873 -0.09535451 -0.4042776 -0.34310615 0.06593405 -0.15369576 -0.07168892
-0.13021941 -0.44887725 -0.08036082 -0.21486658 -0.025671802 -0.023716902 0.10007908 0.099527895
-0.047940217 0.048270382 -0.13356172 -0.31341973 -0.12745805 -0.17118996 -0.12016704 -0.07026764
0.12966077 0.06658587 0.08655216 -0.37121683 -0.06505335 -0.14011875 -0.16007508 -0.31217274
-0.39273894 -0.2140694 -0.18228234 -0.29594368 -0.06538906 0.08447978 -0.32795438 -0.07466
-0.20859757 -0.428501 -0.19757058 -0.12247805 -0.3370538 0.0006980612 -0.1461114 0.075377055
-0.12288229 -0.12384572 -0.30507547 -0.20212886 -0.032877628 0.034697566 -0.22145286 -0.30888718
-0.11074142 0.14078024 -0.0844451 -0.16617528 -0.28755704 -0.35376337 -0.20777926 -0.06181437
0.10104519 0.04194844 -0.22558908 -0.35130668 -0.19773324 -0.35544857 0.15416744 -0.102004044
-0.015140678 0.02247132 -0.19540654 -0.3778473 -0.32192114 -0.24641079 -0.41993666 -0.3455047
-0.3000387 -0.15348573 -0.38892037 0.13852653 -0.09499825 -0.3241523 0.012863839 -0.23731618
0.17058101 -0.33807218 -0.018991232 0.024042958 -0.00944137 -0.35567015 0.007933874 -0.12985346
0.3526536 -0.018745234 -0.31897786 -0.44069016 -0.22104284 -0.009380682 0.033896822 -0.18754353
-0.09949503 -0.36420953 -0.11492224 -0.37900114 -0.17591636 -0.13353716 0.03819299 0.0386577
-0.17316681 -0.060497586 0.023067795 -0.3446876 -0.101815276 -0.316612 -0.0030591702 -0.11091835
-0.10765538 -0.36081153 -0.12069528 -0.37691322 -0.15266527 0.11009107 0.16739282 -0.28266248
-0.18493833 -0.3137458 -0.0873505 -0.04201673 -0.082782134 -0.20915806 -0.156755 -0.18626407
-0.18769358 -0.42215967 -0.14669304 -0.11624234 -0.062124707 -0.12306734 -0.36130968 0.17011085
-0.35125464 0.1119901 -0.15753934 -0.0957264 -0.14079854 -0.22187237 -0.36845806 -0.1873463
0.23398975 0.10658713 -0.33911526 -0.13639772 -0.398557 -0.021265427 -0.19678628 0.09979037
0.040316075 -0.36858293 -0.02310481 -0.13230534 -0.12247585 -0.12811361 0.052008424 -0.16223687
-0.27796102 -0.114512935 -0.42918175 -0.020871473 -0.027199902 -0.40645167 -0.3397071 -0.029000103
-0.4299916 0.0027205844 0.22508763 -0.00065222627 -0.4291387 -0.32753307 -0.10121478 -0.2591666
-0.0130291935 -0.044567067 -0.13467963 -0.24986172 0.094515145 0.24151024 -0.33730155 0.13469906
00000000: f810 e93c 0757 d3bd b50d c7be cd00 e2be
00000010: 6278 a2bd 7f4d b9be 7fd5 64bd 223a 18bd
00000020: 20b4 123d 4aea babe 3a49 c3bd 79fd cebe
00000030: 9cab afbe 6e08 873d 6c62 1dbe a4d1 92bd
00000040: 3d58 05be 3dd3 e5be 3794 a4bd fc05 5cbe
00000050: ac4d d2bc f349 c2bc 43f6 cc3d 48d5 cb3d
00000060: f65c 44bd 2ab7 453d 67c4 08be 8d78 a0be
00000070: 5d84 02be 6c4c 2fbe 231a f6bd 7be8 8fbd
00000080: cbc5 043e 2c5e 883d 4242 b13d 2210 bebe
00000090: b13a 85bd 4a7b 0fbe b9ea 23be 1bd5 9fbe
000000a0: 1415 c9be 0235 5bbe 39a8 3abe ee85 97be
000000b0: b3ea 85bd bc03 ad3d a3e9 a7be 58e7 98bd
000000c0: 9a9a 55be 7c64 dbbe f14f 4abe c6d5 fabd
000000d0: 5192 acbe 18fe 363a 3a9e 15be 495f 9a3d
000000e0: b6a9 fbbd d3a2 fdbd da32 9cbe defa 4ebe
000000f0: b1aa 06bd 091f 0e3d 8ac4 62be 7626 9ebe
00000100: 66cc e2bd b228 103e 8df1 acbd da29 2abe
00000110: ad3a 93be 7920 b5be 16c4 54be 1131 7dbd
00000120: c8f0 ce3d 21d2 2b3d d300 67be 78de b3be
00000130: 957a 4abe 5bfd b5be 12de 1d3e 7fe7 d0bd
00000140: 9b10 78bc c615 b83c a718 48be 3475 c1be
00000150: d9d2 a4be 1c53 7cbe f001 d7be fee5 b0be
00000160: ac9e 99be 5d2b 1dbe 9220 c7be e6d9 0d3e
00000170: 718e c2bd 4af7 a5be dac2 523c 0303 73be
00000180: caac 2e3e cc17 adbe 8093 9bbc bdf5 c43c
00000190: faaf 1abc 661a b6be 14fd 013c 4ef8 04be
000001a0: 038f b43e 9b8f 99bc 1151 a3be 24a2 e1be
000001b0: 0e59 62be 6fb1 19bc 65d7 0a3d 690b 40be
000001c0: 0dc4 cbbd ac79 babe 5a5c ebbd 700c c2be
000001d0: 6b23 34be f7bd 08be 4170 1c3d 8957 1e3d
000001e0: a452 31be 51cc 77bd acf8 bc3c e57a b0be
000001f0: 8784 d0bd f81a a2be 5c7c 48bb 2929 e3bd
00000200: 6d7a dcbd 4abc b8be 162f f7bd c5fa c0be
00000210: 4954 1cbe 6d77 e13d 0669 2b3e 23b9 90be
00000220: 7960 3dbe 4aa3 a0be d2e4 b2bd bc19 2cbd
00000230: ae89 a9bd 882d 56be 6284 20be 02bc 3ebe
00000240: bf32 40be 5025 d8be b336 16be 7710 eebd
00000250: 7a76 7ebd bb0a fcbd 95fd b8be 8a31 2e3e
00000260: a6d7 b3be 115b e53d fe51 21be 340c c4bd
00000270: 7e2d 10be 8332 63be 89a6 bcbe b5d7 3fbe
00000280: 029b 6f3e 5a4a da3d 84a0 adbe d8ab 0bbe
00000290: aa0f ccbe d534 aebc 5882 49be e55e cc3d
000002a0: 7822 253d e7b6 bcbe 4c46 bdbc 0d7b 07be
000002b0: 9ed4 fabd 3730 03be c906 553d 6c21 26be
000002c0: e850 8ebe c285 eabd b6bd dbbe a7fa aabc
000002d0: 54d2 debc 6f1a d0be 17ee adbe a091 edbc
000002e0: dc27 dcbe d54b 323b 5f7d 663e 2afa 2aba
000002f0: 11b8 dbbe 6ab2 a7be b249 cfbd 7cb1 84be
00000300: 6678 55bc f58b 36bd 75e9 09be c0db 7fbe
00000310: 2891 c13d 764e 773e cab2 acbe 8dee 093e

sparse_weights.3.weight f4 [100, 1]
0.050747037 -0.08494926 -0.08213801 -0.19784877 0.04118725 -0.09992628 0.1415354 -0.033519734
-0.13324893 -0.17738865 -0.18099256 -0.41435874 -0.14850819 -0.28240353 -0.09409466 -0.059871312
0.10509621 -0.1306883 -0.3367563 0.039267488 -0.12222385 -0.26376596 0.07733994 -0.11582465
-0.30908948 0.1113785 0.13150163 -0.36532745 -0.41097027 -0.046484947 -0.28558716 -0.03335525
-0.08173336 -0.029455254 -0.28029507 -0.0017566518 -0.09136748 -0.06449234 -0.19557524 -0.20584732
-0.30566975 -0.17341262 0.26748505 -0.3015131 -0.051590864 -0.024989437 -0.13958271 -0.08625544
-0.13013747 -0.5619842 0.11982509 -0.03337606 -0.11626786 -0.15074836 -0.4277456 -0.16012432
-0.108113825 -0.2215877 -0.039071545 -0.15925013 -0.1216096 -0.19133945 -0.21353175 -0.25028643
-0.15468842 -0.28534403 -0.29460523 -0.071337946 -0.21235201 0.08157816 0.00036179856 -0.03777995
-0.12601112 0.003380668 0.027416807 -0.08631362 -0.37934053 0.14468189 -0.18529287 0.021027459
-0.1547993 -0.19903785 -0.11994365 -0.12546486 -0.19701993 -0.22795337 -0.26129255 -0.16107993
-0.20581466 -0.20497191 -0.061831377 -0.09762285 -0.026978768 0.0042767227 -0.40028268 -0.22125039
-0.22522901 -0.51272076 0.051963333 -0.21548364
00000000: 20dc 4f3d e1f9 adbd f937 a8bd de98 4abe
00000010: f6b3 283d 26a6 ccbd a8ee 103e fd4b 09bd
00000020: 6872 08be 5fa5 35be 1d56 39be d426 d4be
00000030: 8812 18be 3297 90be b3b4 c0bd 9f3b 75bd
00000040: af3c d73d 27d3 05be 526b acbe f2d6 203d
00000050: 7f50 fabd 550c 87be 6764 9e3d 7935 edbd
00000060: fa40 9ebe 691a e43d 5da8 063e 330c bbbe
00000070: b26a d2be 0067 3ebd 7b38 92be 849f 08bd
00000080: d263 a7bd 254c f1bc d682 8fbe 743f e6ba
00000090: e01e bbbd 8f14 84bd e044 48be a4c9 52be
000000a0: bf80 9cbe 1493 31be cdf3 883e ed5f 9abe
000000b0: f150 53bd a6b6 ccbc c5ee 0ebe b1a6 b0bd
000000c0: c242 05be 32de 0fbf db66 f53d 56b5 08bd
000000d0: d81d eebd c75d 1abe 7901 dbbe a1f7 23be
000000e0: c86a ddbd e3e7 62be 7c09 20bd 7712 23be
000000f0: 740e f9bd 7dee 43be 11a8 5abe 8b25 80be
00000100: a466 1ebe 9d18 92be 7fd6 96be a119 92bd
00000110: ce72 59be 7312 a73d c8af bd39 26bf 1abd
00000120: 0f09 01be 328e 5d3b 3699 e03c 32c5 b0bd
00000130: ec38 c2be 7d27 143e 6abd 3dbe c741 ac3c
00000140: b583 1ebe 94d0 4bbe 04a5 f5bd dc79 00be
00000150: 98bf 49be 9c6c 69be 23c8 85be 23f2 24be
00000160: 14c1 52be 28e4 51be e642 7dbd 7dee c7bd
00000170: 9402 ddbc c023 8c3b daf1 ccbe 768f 62be
00000180: 6fa2 66be ab41 03bf 81d7 543d bea7 5cbe

sparse_weights.4.weight f4 [50, 1]
-0.050759222 -0.11664856 -0.15898374 -0.26357844 -0.39422068 -0.022678731 -0.30074883 -0.1503445
-0.037117913 -0.01748747 -0.15904397 -0.093998164 -0.06785447 0.015741639 -0.34902883 -0.05655976
-0.20934135 -0.07323962 -0.06409499 -0.08540132 -0.16694807 -0.015346406 -0.05511327 -0.32211366
-0.1907401 -0.2713607 -0.13023083 0.055228878 -0.10784377 -0.115422346 -0.2777006 -0.30716035
-0.14627406 0.066342145 -0.18006818 0.0049090665 -0.17978479 -0.25535285 -0.01916423 -0.036635626
-0.110001005 -0.14514062 -0.2866235 -0.022669662 -0.09538454 0.03769708 -0.124331675 -0.10161153
-0.21152923 -0.27113986
00000000: e7e8 4fbd 71e5 eebd a2cc 22be c1f3 86be
00000010: 4bd7 c9be bfc8 b9bc c0fb 99be e9f3 19be
00000020: f408 18bd e241 8fbc 6cdc 22be 1c82 c0bd
00000030: 49f7 8abd 9cf4 803c e8b3 b2be 35ab 67bd
00000040: 945d 56be a7fe 95bd 3c44 83bd e3e6 aebd
00000050: 6ff4 2abe 7e6f 7bbc 74be 61bd 15ec a4be
00000060: 5f51 43be caef 8abe 3b5b 05be ad37 623d
00000070: 32dd dcbd 8d62 ecbd c62e 8ebe 1f44 9dbe
00000080: dec8 15be 64de 873d cb63 38be 3cdc a03b
00000090: 8119 38be 9cbd 82be 4efe 9cbc 3d0f 16bd
000000a0: 3548 e1bd be9f 14be 51c0 92be bab5 b9bc
000000b0: f858 c3bd 4168 1a3d 9ba1 febd b519 d0bd
000000c0: 1e9b 58be d8d2 8abe

sparse_weights.5.weight f4 [300, 1]
-0.38600472 -0.17725007 0.019177599 -0.44195652 -0.11824566 -0.07826014 -0.29100832 0.058614537
0.15100667 -0.2602496 -0.32974622 -0.04171579 -0.09549451 0.033887085 -0.22269656 -0.25319418
-0.02622081 0.123440914 -0.14463152 -0.046063084 -0.07484549 -0.050854363 0.04598672 -0.1446097
-0.42393932 -0.3854718 -0.13284615 0.045333266 -0.11080972 -0.29193512 -0.054047503 -0.059157554
0.07805215 -0.2165782 -0.12681983 -0.28810012 -0.3135519 0.09337171 -0.2549533 -0.45266128
0.09657092 -0.27600992 -0.070586346 0.13180126 -0.013450931 -0.13845742 -0.1523821 -0.09960418
-0.052796528 0.013667696 0.094202906 -0.40632913 -0.35196906 -0.04162159 -0.0846537 -0.3845974
-0.38183808 0.022167932 -0.3006474 -0.026767991 -0.31283647 -0.098026484 -0.2872463 -0.040348943
0.022801114 -0.17798252 0.13375315 0.31217963 0.29186577 -0.09508026 -0.05486357 -0.3190743
-0.36836606 -0.3242112 -0.016010784 -0.33286458 -0.114208505 0.00993372 -0.11559258 -0.041293845
0.022718364 -0.005714095 -0.018394092 -0.31394097 0.11512638 -0.0330441 0.18186557 -0.080773346
0.02905299 -0.44134682 -0.26620886 -0.19856602 -0.13218895 -0.08055112 -0.24625422 -0.24785382
-0.016133294 -0.25647536 -0.38024017 -0.3170805 -0.26028404 -0.41955218 -0.10532388 -0.1001501
-0.1041447 -0.037173428 0.19180143 -0.06739496 -0.13399915 -0.11257648 -0.38737127 -0.26499683
-0.17375419 -0.42076033 -0.3327651 -0.07105815 -0.08499059 -0.23643713 -0.09703865 0.074663594
-0.42549276 -0.34438902 -0.35417345 -0.16926062 -0.10744195 -0.083996214 -0.33362502 -0.29708603
-0.24269763 0.117601104 0.0030190328 0.038827226 -0.33749294 0.11044563 -0.41538864 -0.070678234
-0.041930053 -0.43025157 -0.4105141 0.03378332 -0.3369485 -0.03563781 -0.117503464 -0.44476247
-0.13651784 -0.32187286 -0.09644646 -0.28968313 0.24598078 -0.38544604 0.057747405 -0.407454
-0.32049307 0.14442952 -0.013350111 -0.10895082 -0.11079491 -0.025691181 -0.33017775 -0.07934383
0.09304694 -0.14530887 -0.46321037 0.19242854 -0.33656108 -0.06071921 -0.2726631 -0.43824023
-0.27404454 -0.33091357 -0.08182825 0.04142937 -0.017433075 0.030435657 0.003177698 -0.08043144
-0.3267242 0.106685124 -0.13685447 -0.04189331 -0.15233234 -0.14780189 0.09441408 -0.33335817
-0.24361731 -0.1591867 -0.06514039 -0.34790668 -0.3606888 -0.32419842 0.12651752 0.08137488
0.07399889 -0.119479485 -0.10389391 0.11378931 -0.43646252 -0.08370012 -0.3127926 -0.38498074
-0.036174536 -0.04939702 -0.30424163 -0.3074316 -0.3734305 -0.09457892 -0.35030183 -0.3388548
-0.2888394 -0.06856857 -0.07445869 0.17339161 -0.42414057 -0.09998119 -0.2704939 -0.39548233
0.0693808 0.14419065 -0.06706951 -0.07550441 0.22754988 -0.14954281 -0.08892922 -0.31687474
0.024116592 0.1815535 -0.32890865 -0.38871542 -0.28991622 0.011841106 0.1924872 -0.12103749
0.028980486 -0.1292951 0.15215427 -0.39991286 -0.09917484 -0.34854627 -0.29378083 -0.32550782
-0.313598 -0.11428275 -0.32127053 -0.24272513 -0.3237239 0.011128793 0.08000039 -0.05231706
-0.18503647 0.16154027 -0.42277318 0.0416049 0.04138863 -0.10267899 -0.34038842 -0.076208495
00000000: 69a2 c5be 0b81 35be 571a 9d3c 2048 e2be
00000010: c82a f2bd da46 a0bd 0bff 94be cc15 703d
00000020: 7ea1 1a3e 703f 85be 7fd4 a8be 2dde 2abd
00000030: a092 c3bd 2fcd 0a3d 910a 64be aba2 81be
00000040: 06cd d6bc 97ce fc3d 491a 14be a5ac 3cbd
00000050: 9848 99bd aa4c 50bd 925c 3c3d 9114 14be
00000060: 930e d9be 8f5c c5be d208 08be 60af 393d
00000070: 35f0 e2bd 8578 95be ea60 5dbd 314f 72bd
00000080: ced9 9f3d adc6 5dbe 0fdd 01be dc81 93be
00000090: e089 a0be ab39 bf3d 3d89 82be 38c3 e7be
000000a0: f9c6 c53d 2c51 8dbe 938f 90bd e9f6 063e
000000b0: 4b61 5cbc c8c7 0dbe 0e0a 1cbe 47fd cbbd
000000c0: 2c41 58bd 79ee 5f3c 74ed c03d 5f0a d0be
000000d0: 4a35 b4be 667b 2abd eb5e adbd f3e9 c4be
000000e0: 4880 c3be 8699 b53c 75ee 99be 8c48 dbbc
000000f0: 1a2c a0be 1cc2 c8bd f211 93be ef44 25bd
00000100: 67c9 ba3c 0d41 36be 96f6 083e 02d6 9f3e
00000110: 6e6f 953e 70b9 c2bd 9fb8 60bd b55d a3be
00000120: 7a9a bcbe 03ff a5be 0c29 83bc 3a6d aabe
00000130: 26e6 e9bd 0bc1 223c cdbb ecbd bc23 29bd
00000140: dd1b ba3c 4e3d bbbb 35af 96bc dfbc a0be
00000150: 61c7 eb3d 4059 07bd f83a 3a3e 7f6c a5bd
00000160: 8900 ee3c 36f8 e1be 874c 88be e454 4bbe
00000170: 8a5c 07be fcf7 a4bd 112a 7cbe 64cd 7dbe
00000180: f829 84bc bd50 83be d7ae c2be 6058 a2be
00000190: f343 85be 8bcf d6be 0cb4 d7bd 7f1b cdbd
000001a0: d149 d5bd 2a43 18bd 9867 443e 5e06 8abd
000001b0: 1337 09be 7f8e e6bd 8755 c6be aaad 87be
000001c0: 9eec 31be e66d d7be 3060 aabe ef86 91bd
000001d0: 8c0f aebd 931c 72be 33bc c6bd 3ae9 983d
000001e0: 30da d9be c253 b0be 3956 b5be a852 2dbe
000001f0: 860a dcbd 3506 acbd e6d0 aabe a91b 98be
00000200: ba85 78be d9d8 f03d f7da 453b 4c09 1f3d
00000210: e0cb acbe 5231 e23d d2ad d4be c0bf 90bd
00000220: d9be 2bbd ef49 dcbe e72e d2be 6160 0a3d
00000230: 8484 acbe f4f8 11bd a8a5 f0bd e8b7 e3be
00000240: 55cb 0bbe 85cc a4be b985 c5bd 5951 94be
00000250: 63e2 7b3e 2f59 c5be 8b88 6c3d d09d d0be
00000260: ab17 a4be 55e5 133e 6dba 5abc 9c21 dfbd
00000270: 71e8 e2bd 5076 d2bc 0f0d a9be 057f a2bd
00000280: 658f be3d d9cb 14be e929 edbe fd0b 453e
00000290: bc51 acbe b5b4 78bd 7f9a 8bbe 0661 e0be
000002a0: 914f 8cbe 816d a9be 9295 a7bd d8b1 293d
000002b0: cfcf 8ebc 3354 f93c ed40 503b 3db9 a4bd
000002c0: 6548 a7be bb7d da3d 9423 0cbe 5298 2bbd
000002d0: 02fd 1bbe 6159 17be 2b5c c13d ecad aabe
000002e0: d176 79be d701 23be 5368 85bd d320 b2be
000002f0: 34ac b8be 56fd a5be cf8d 013e e0a7 a63d
00000300: bb8c 973d a9b1 f4bd 55c6 d4bd 5f0a e93d
00000310: 0478 dfbe f86a abbd 5a26 a0be 321c c5be
00000320: c02b 14bd 8854 4abd 8fc5 9bbe ad67 9dbe
00000330: 4832 bfbe 98b2 c1bd c35a b3be 607e adbe
00000340: c2e2 93be ae6d 8cbd cc7d 98bd 928d 313e
00000350: f428 d9be f0c2 ccbd 2d7e 8abe a97c cabe
00000360: 8517 8e3d b7a6 133e bd5b 89bd 0ea2 9abd
00000370: d602 693e c021 19be 8620 b6bd 683d a2be
00000380: 2990 c53c 29e9 393e b766 a8be b505 c7be
00000390: e66f 94be 3301 423c 5d1b 453e 81e2 f7bd
000003a0: 7c68 ed3c ef65 04be 54ce 1b3e 61c1 ccbe
000003b0: 2e1c cbbd a874 b2be 716a 96be f6a8 a6be
000003c0: eb8f a0be 130d eabd 927d a4be f08c 78be
000003d0: 24bf a5be 8a55 363c 3fd7 a33d 6a4a 56bd
000003e0: 337a 3dbe d06a 253e ba75 d8be e669 2a3d
000003f0: 2087 293d 5d49 d2bd 6447 aebe 3313 9cbd

sparse_weights.6.weight f4 [200, 1]
-0.20894757 0.19858727 -0.029051507 0.00916055 -0.31804898 -0.37697244 -0.13838695 -0.044703744
-0.1792482 -0.028701127 -0.15178528 -0.008502648 0.1060532 -0.03786217 -0.04932448 -0.17684108
-0.39513844 -0.16454166 -0.47947937 -0.22303979 0.17365415 -0.35351008 -0.046630908 -0.0076325806
-0.2705276 0.017481962 -0.09973165 -0.31549767 0.08878288 -0.23278098 -0.17091677 -0.1470857
0.01740686 -0.20410204 -0.2047497 -0.2658966 -0.17823674 -0.050404254 -0.32912117 -0.113485806
-0.468623 -0.27995187 -0.14913784 -0.028187655 -0.023619672 -0.15092666 0.13962397 0.14553258
-0.106228255 -0.12553072 -0.33740333 -0.14705734 -0.010226188 -0.14338423 0.06301526 -0.19117682
-0.077169195 -0.17386894 -0.33105862 -0.29603654 -0.449588 -0.4804301 -0.454528 -0.2119025
-0.007581169 -0.12114098 -0.20562206 -0.035462316 -0.10996227 -0.042385865 -0.22102588 -0.11323861
-0.19481517 -0.034551524 -0.15082185 -0.21165708 -0.312171 -0.36373788 0.074086756 -0.043027386
-0.0055287103 -0.3334125 0.13093776 -0.2936552 -0.08190184 -0.026870485 0.03232987 -0.3100192
-0.14168318 -0.04750637 -0.013992416 -0.19675326 -0.17896797 -0.055153083 0.18959591 -0.33920115
-0.11863465 0.13408904 -0.07348445 -0.19332594 -0.4344415 -0.2992697 0.083490424 -0.15022412
-0.07033501 -0.29087654 -0.34791738 -0.50852185 -0.20084871 -0.124444984 -0.18484373 -0.3163648
0.0038349088 -0.17810535 0.11661275 -0.11465465 -0.34423897 -0.44084078 -0.10809313 -0.0031488112
0.03633038 -0.18183506 -0.3117428 0.055388454 0.1258991 0.0064144204 0.008174178 -0.37038594
-0.36606202 -0.4438316 -0.08987654 -0.06079764 -0.17256212 -0.19287449 -0.47826198 0.06438133
0.08737308 -0.02304964 0.04761064 -0.19603744 -0.048929226 -0.076032944 -0.23344582 0.0057616276
0.09523208 -0.30834013 0.07776052 -0.014017612 -0.20386648 -0.12195214 0.01793267 -0.02864892
-0.14513786 -0.0054229563 0.1080058 -0.15204148 -0.18711513 0.004640445 0.025632208 -0.12790556
-0.053750474 -0.11431902 0.013980969 -0.311537 -0.44496864 -0.23056938 -0.34487468 -0.31862503
-0.38514873 0.23071854 0.070383124 -0.36824813 -0.39394116 0.12290048 0.057639036 -0.1730026
-0.34772348 -0.028300624 -0.15668726 -0.38519344 0.052597526 0.018268252 -0.2095252 -0.37993684
-0.17851767 -0.20161864 -0.20414221 -0.16450614 0.031176202 -0.2815596 0.005461576 -0.36664885
-0.16699576 -0.14575781 0.026616922 -0.22856651 -0.29261264 -0.4797504 -0.1431601 -0.40234122
00000000: 5af6 55be 765a 4b3e 6dfd edbc 2216 163c
00000010: 51d7 a2be 8802 c1be 4fb5 0dbe 461b 37bd
00000020: d78c 37be a01e ebbc 9a6d 1bbe b14e 0bbc
00000030: 6c32 d93d 5d15 1bbd 7708 4abd d415 35be
00000040: 964f cabe 9c7d 28be 527e f5be 8b64 64be
00000050: 65d2 313e 46ff b4be 0d00 3fbd ba1a fabb
00000060: 9882 8abe 5536 8f3c 1b40 ccbd e988 a1be
00000070: ccd3 b53d 235e 6ebe ce04 2fbe a29d 16be
00000080: d598 8e3c 2000 51be e8a9 51be 9923 88be
00000090: b183 36be b174 4ebd 9282 a8be 3f6b e8bd
000000a0: 5bef efbe da55 8fbe 97b7 18be cce9 e6bc
000000b0: 0b7e c1bc 858c 1abe 96f9 0e3e 7e06 153e
000000c0: 338e d9bd 208b 00be 21c0 acbe 3396 16be
000000d0: be8b 27bc 51d3 12be 250e 813d dbc3 43be
000000e0: e20a 9ebd b30a 32be 8480 a9be 1a92 97be
000000f0: 6630 e6be effa f5be e5b7 e8be f8fc 58be
00000100: 746b f8bb c318 f8bd 978e 52be ef40 11bd
00000110: e633 e1bd cd9c 2dbd 9c54 62be a5e9 e7bd
00000120: a17d 47be e685 0dbd 0b71 1abe a2bc 58be
00000130: e1d4 9fbe da3b babe ccba 973d 7c3d 30bd
00000140: 2f2a b5bb 0bb5 aabe 8c14 063e f959 96be
00000150: 27bc a7bd 7e1f dcbc 536c 043d d6ba 9ebe
00000160: 6515 11be 0a96 42bd 7240 65bc b079 49be
00000170: 6143 37be 33e8 61bd 6e25 423e c6ab adbe
00000180: b9f6 f2bd a34e 093e 047f 96bd 3cf7 45be
00000190: 1e6f debe e139 99be 07fd aa3d 5ad4 19be
000001a0: cd0b 90bd c5ed 94be 3a22 b2be 7d2e 02bf
000001b0: 49ab 4dbe 03dd febd ad47 3dbe 91fa a1be
000001c0: 1853 7b3b 4061 36be aad2 ee3d 0fd0 eabd
000001d0: 1740 b0be e2b5 e1be ee5f ddbd 495c 4ebb
000001e0: 2acf 143d f832 3abe c19c 9fbe 01df 623d
000001f0: b2eb 003e 0f30 d23b fdec 053c 3aa3 bdbe
00000200: 7b6c bbbe e53d e3be 3111 b8bd f206 79bd
00000210: 20b4 30be e480 45be c1de f4be 5cda 833d
00000220: a8f0 b23d 99d2 bcbc 6003 433d 0abe 48be
00000230: 036a 48bd 29b7 9bbd 6c0c 6fbe 09cc bc3b
00000240: 0909 c33d c2de 9dbe e840 9f3d 20aa 65bc
00000250: 60c2 50be 0bc2 f9bd 89e7 923c 24b1 eabc
00000260: 059f 14be 0eb3 b1bb 2532 dd3d c3b0 1bbe
00000270: 1c9b 3fbe e00e 983b a3fa d13c adf9 02be
00000280: 7529 5cbd 1720 eabd 6f10 653c c781 9fbe
00000290: eed2 e3be 611a 6cbe 6a93 b0be d222 a3be
000002a0: 3732 c5be 7b41 6c3e 0725 903d 058b bcbe
000002b0: a8b2 c9be 3fb3 fb3d e916 6c3d 9827 31be
000002c0: d008 b2be b6d6 e7bc a072 20be 1338 c5be
000002d0: 8170 573d 4da7 953c c68d 56be 1587 c2be
000002e0: 56cd 36be 1e75 4ebe a80a 51be 4c74 28be
000002f0: 3c65 ff3c 9428 90be 05f7 b23b 66b9 bbbe
00000300: f000 2bbe 8941 15be bb0b da3c 570d 6abe
00000310: 53d1 95be d8a1 f5be 9098 12be abff cdbe

sparse_weights.7.weight f4 [100, 1]
-0.43559673 -0.24348128 -0.33505735 -0.021126404 -0.1923419 -0.0955608 -0.20889385 -0.063346505
-0.17496458 -0.17229863 -0.015839012 -0.3254258 -0.27121127 -0.21633402 -0.091909915 -0.26862404
-0.27499405 -0.01950594 -0.20866275 -0.2203268 -0.014542408 -0.39102215 -0.059866216 -0.036462728
-0.02189936 -0.26205105 -0.15541133 -0.24751051 -0.0061751506 -0.11212938 0.07520958 -0.13167511
-0.23996747 -0.1499411 -0.2172085 -0.02418365 -0.30362746 -0.09233786 -0.12230556 0.033582248
0.09286828 -0.25141406 0.037039466 -0.42051092 -0.13580503 0.016449459 0.0148858 -0.060697123
-0.08798172 0.14140338 -0.25021875 -0.06939265 -0.24210961 -0.17408542 -0.12059715 -0.060428318
0.06341564 0.075765856 -0.068981335 -0.043946616 0.051929202 -0.25813416 -0.11896297 -0.11844948
-0.24003305 0.021017786 -0.017313534 -0.2686504 -0.109270506 -0.36345768 -0.00850765 -0.14701751
-0.45742556 -0.17331888 -0.18710016 -0.2405562 -0.14850806 -0.051630065 0.007990267 -0.18542698
-0.17774987 -0.099434815 0.033997547 -0.17110744 -0.15692933 -0.033418883 0.014128124 -0.3968845
-0.32565337 -0.2745775 -0.26820856 -0.17842856 0.0987931 -0.18431653 -0.28767604 -0.048748877
-0.07836131 -0.056137435 0.18436523 -0.2796748
00000000: 8906 dfbe 2853 79be a38c abbe 4811 adbc
00000010: 46f5 44be 61b5 c3bd 45e8 55be d0bb 81bd
00000020: ea29 33be 0d6f 30be d1c0 81bc 369e a6be
00000030: 34dc 8abe aa86 5dbe 443b bcbd 1789 89be
00000040: 05cc 8cbe ecca 9fbc b0ab 55be 599d 61be
00000050: 4843 6ebc 0e34 c8be 4736 75bd f159 15bd
00000060: 4966 b3bc 8e2b 86be 2624 1fbe 6573 7dbe
00000070: eb58 cabb 17a4 e5bd 7b07 9a3d d7d5 06be
00000080: 08ba 75be 298a 19be e86b 5ebe ca1c c6bc
00000090: 0f75 9bbe a21b bdbd 567b fabd 8a8d 093d
000000a0: ba31 be3d 58b9 80be b2b6 173d 354d d7be
000000b0: 7910 0bbe 04c1 863c 92e3 733c 8c9d 78bd
000000c0: c32f b4bd 0ccc 103e ac1c 80be bc1d 8ebd
000000d0: 95eb 77be 7343 32be a3fb f6bd af83 77bd
000000e0: 0fe0 813d 212b 9b3d 1646 8dbd 5e01 34bd
000000f0: b7b3 543d 292a 84be dca2 f3bd a495 f2bd
00000100: 39cb 75be 7e2d ac3c 1dd5 8dbc 8c8c 89be
00000110: 37c9 dfbd 2017 babe ac63 0bbc c28b 16be
00000120: af33 eabe 817a 31be 2f97 3fbe 5d54 76be
00000130: 7f12 18be 0c7a 53bd 9ce9 023c 92e0 3dbe
00000140: 1004 36be 7ba4 cbbd 0341 0b3d ca36 2fbe
00000150: 15b2 20be 3de2 08bd a679 673c 7234 cbbe
00000160: 0abc a6be 6c95 8cbe a252 89be fab5 36be
00000170: 0954 ca3d 79bd 3cbe 464a 93be e7ac 47bd
00000180: e57b a0bd 5ef0 65bd 3dca 3c3e 8931 8fbe

sparse_weights.8.weight f4 [1000, 1]
-0.25083742 -0.15050696 -0.19374189 -0.058409378 -0.1631821 0.071629554 0.15890378 -0.22017013
0.12614945 -0.28627893 -0.22731362 -0.13620584 0.07507634 -0.2311685 -0.21197163 -0.20067075
0.073437974 0.2900891 0.05691545 -0.335215 -0.11194018 -0.15344048 -0.27674615 -0.2448038
-0.17145242 -0.34742865 -0.20313688 -0.26085147 -0.22022788 -0.1771925 -0.23770803 -0.23188818
0.11494097 0.055449385 0.14361629 0.1496388 -0.22274815 -0.1594613 0.12678064 -0.30567938
-0.19852969 -0.27450293 -0.22468874 -0.27096757 0.15821354 -0.14021915 -0.31868 -0.19545577
0.18051046 0.09060912 -0.2598386 -0.14787486 -0.1981083 0.14049023 -0.14547111 -0.29225674
-0.2689633 -0.37302306 0.16925691 -0.23024051 -0.17394355 -0.4010183 -0.19209531 -0.40287334
-0.22691171 -0.2383039 -0.15043421 -0.1518148 -0.430092 -0.3303043 -0.26964024 -0.34072497
-0.1878987 0.1263777 -0.18485412 0.11825678 -0.18063909 -0.20484456 -0.20148748 0.014189158
-0.20466891 0.033848036 0.118046306 -0.238959 -0.20711274 0.06938591 0.098124355 -0.16938516
0.036593407 -0.30366066 -0.14420658 -0.2676025 0.10405823 -0.17266855 0.11489784 -0.22772598
0.07281396 -0.123171166 -0.32395014 -0.17260721 -0.38593528 -0.27809364 0.18692079 -0.19552416
-0.17845848 -0.24794026 0.06593175 -0.19724825 -0.23435648 -0.3028636 -0.26364264 -0.23235105
-0.23642206 -0.14182252 0.12865782 -0.1930268 0.29605407 -0.20823094 -0.08401242 0.12993541
-0.24045707 -0.31854767 0.068490624 -0.20896433 -0.15468189 -0.44619095 0.11130085 -0.22436316
-0.2473434 -0.25892296 0.29281655 -0.25198653 0.087171465 -0.23766862 0.09786383 0.07673077
-0.23707166 -0.26045433 0.13648383 0.086665764 -0.24212526 -0.23351477 0.14079075 0.099325635
0.08617054 -0.29900217 -0.22646977 -0.20421495 0.16425982 -0.193592 -0.21773791 0.15330689
-0.09943573 -0.3157167 -0.30029246 -0.32842425 -0.3216896 -0.18193077 -0.21301536 -0.24703531
-0.22038707 0.11152935 -0.27409235 -0.25350082 0.062416162 -0.29434386 -0.2507609 -0.25432625
-0.23690613 -0.18815945 0.14850095 -0.27024922 -0.3448169 -0.27999234 -0.20934847 -0.3201064
-0.2446211 0.2132901 0.048149187 0.1126861 -0.25879955 0.07194676 -0.23053178 0.108734265
-0.167604 -0.25263515 -0.26331303 -0.22791086 -0.33217537 -0.20100035 -0.26303858 -0.14432968
-0.24922921 -0.3442633 -0.23284717 -0.22812323 -0.24315253 -0.17171443 -0.19812733 -0.15703808
0.20338817 -0.24180083 -0.21287364 -0.27775392 -0.16030058 -0.24957715 -0.27052435 -0.2206304
-0.27245054 -0.15192412 -0.17436014 -0.22373374 0.11640013 -0.27618432 -0.23196307 -0.3586083
-0.26536804 0.19640164 -0.07768811 0.110623926 -0.31566593 -0.25308546 -0.2510887 0.28112036
-0.3059879 -0.1354381 0.21832623 0.027319683 -0.1590931 -0.18769582 0.037716415 -0.17481378
-0.28080294 0.111785255 -0.25397354 -0.19475102 0.07359497 -0.10611628 -0.23119777 -0.19234267
-0.12440829 0.067522466 0.07417516 -0.14911315 0.13993101 0.02931794 -0.23952526 0.08091945
-0.17371316 -0.26633286 -0.27126238 -0.31978106 -0.2101014 -0.12075929 -0.24958865 -0.2271676
00000000: c36d 80be 7f1e 1abe 4664 46be ac3e 6fbd
00000010: 3519 27be 84b2 923d acb7 223e 4774 61be
00000020: 522d 013e 2793 92be e7c4 68be 8b79 0bbe
00000030: a0c1 993d 6fb7 6cbe 170f 59be a27c 4dbe
00000040: a666 963d 8f86 943e 2d20 693d 4da1 abbe
00000050: e540 e5bd 801f 1dbe acb1 8dbe d9ad 7abe
00000060: 3991 2fbe 2be2 b1be 1d03 50be 538e 85be
00000070: 6b83 61be f371 35be bc69 73be 1874 6dbe
00000080: 2c66 eb3d e51e 633d 2610 133e ea3a 193e
00000090: 1718 64be d349 23be c9d2 013e 0282 9cbe
000000a0: 5e4b 4bbe a68b 8cbe ce14 66be 43bc 8abe
000000b0: bb02 223e 9c95 0fbe 062a a3be 8f25 48be
000000c0: bcd7 383e 4691 b93d 9109 85be 826c 17be
000000d0: e7dc 4abe acdc 0f3e 61f6 14be ada2 95be
000000e0: 8fb5 89be e1fc bebe af51 2d3e 2bc4 6bbe
000000f0: 421e 32be 4552 cdbe a2b4 44be 6a45 cebe
00000100: 8b5b 68be f005 74be 6d0b 1abe 5775 1bbe
00000110: 0535 dcbe a51d a9be 490e 8abe 8173 aebe
00000120: 8468 40be 2869 013e 664a 3dbe 9c30 f23d
00000130: 74f9 38be c6c2 51be bc52 4ebe a479 683c
00000140: ba94 51be 3da4 0a3d 43c2 f13d abb1 74be
00000150: 5d15 54be 331a 8e3d 6cf5 c83d 4e73 2dbe
00000160: f8e2 153d 6979 9bbe e4aa 13be 3203 89be
00000170: 7b1c d53d 06d0 30be 8f4f eb3d 0031 69be
00000180: 7c1f 953d 2a41 fcbd cbdc a5be f2bf 30be
00000190: 4f99 c5be 4a62 8ebe 2a68 3f3e 7c37 48be
000001a0: d2bd 36be 0de4 7dbe 3a07 873d 72fb 49be
000001b0: 25fb 6fbe f010 9bbe 2bfc 86be 6fed 6dbe
000001c0: a018 72be ec39 11be e0be 033e d1a8 45be
000001d0: 6694 973e 7e3a 55be b40e acbd ca0d 053e
000001e0: 613a 76be ae18 a3be d044 8c3d bffa 55be
000001f0: ee64 1ebe 2473 e4be b3f1 e33d 75bf 65be
00000200: 9747 7dbe 8d91 84be 0dec 953e 6104 81be
00000210: f486 b23d 675f 73be d56c c83d 0625 9d3d
00000220: eac2 72be 455a 85be 6bc2 0b3e d27d b13d
00000230: afef 77be 7f1e 6fbe 732b 103e 3d6b cb3d
00000240: 2e7a b03d d016 99be b1e7 67be b91d 51be
00000250: ba33 283e fb3c 46be b0f6 5ebe 7bfc 1c3e
00000260: f6a4 cbbd 9fa5 a1be efbf 99be 3927 a8be
00000270: 80b4 a4be 0f4c 3abe b320 5abe d3f6 7cbe
00000280: 26ad 61be 8069 e43d d555 8cbe dcca 81be
00000290: 17a8 7f3d 3db4 96be bc63 80be 0d37 82be
000002a0: 8597 72be dfac 40be a210 183e 1b5e 8abe
000002b0: d78b b0be 285b 8fbe 725f 56be fce4 a3be
000002c0: f47d 7abe b868 5a3e 1538 453d f8c7 e63d
000002d0: 6081 84be d358 933d 8610 6cbe 12b0 de3d
000002e0: 62a0 2bbe 6559 81be f7d0 86be 7761 69be
000002f0: e412 aabe 09d3 4dbe feac 86be 29cb 13be
00000300: f135 7fbe 4743 b0be 7d6f 6ebe 2399 69be
00000310: fafc 78be e8d5 2fbe e4e1 4abe 97ce 20be
00000320: fd44 503e a39a 77be 8cfb 59be c335 8ebe
00000330: d625 24be 2791 7fbe 2b82 8abe f0ec 61be
00000340: a37e 8bbe ff91 1bbe 778b 32be 751a 65be
00000350: 3163 ee3d 0868 8dbe ba87 6dbe 829b b7be
00000360: 52de 87be 831d 493e f21a 9fbd cc8e e23d
00000370: f79e a1be 6b94 81be b38e 80be 02ef 8f3e
00000380: 72aa 9cbe 49b0 0abe e990 5f3e 87cd df3c
00000390: 4de9 22be 5533 40be 877c 1a3d 6202 33be
000003a0: 67c5 8fbe abef e43d d208 82be d06c 47be
000003b0: f6b8 963d 7e53 d9bd 1cbf 6cbe 7af5 44be
000003c0: c6c9 febd 3849 8a3d 25e9 973d 1eb1 18be
000003d0: 134a 0f3e 2d2c f03c 1c46 75be 19b9 a53d
000003e0: dde1 31be c85c 88be e7e2 8abe 58ba a3be
000003f0: d224 57be a650 f7bd 2b94 7fbe a09e 68be

sparse_weights.9.weight f4 [500, 1]
-0.20295325 -0.03713616 -0.15457857 -0.18570475 0.022630677 -0.2910733 -0.27303398 0.014915506
0.18182713 0.007834485 -0.04945383 -0.012156903 0.050519284 -0.27364033 -0.33847848 0.05297222
-0.30051395 0.032878846 -0.013780056 -0.21026336 -0.2573736 -0.14391167 0.08897789 -0.32999974
-0.33440974 -0.29304057 0.11560294 -0.03702145 -0.27044734 -0.011404643 -0.3222309 -0.309721
-0.36112395 -0.30863798 0.1276367 -0.29428023 0.036836825 0.28344524 -0.05263387 -0.24273457
-0.26518926 -0.04004145 -0.23830438 0.08753612 -0.20859478 -0.19232623 -0.248666 -0.33318964
-0.05019289 -0.28145695 -0.08530809 -0.37188712 -0.23331846 -0.22818011 -0.33536136 -0.0036943136
-0.23273906 0.07888303 -0.284548 -0.26148853 -0.2362916 0.025494434 -0.26759592 -0.31093642
-0.25452176 -0.4445066 0.035208307 -0.0046283146 0.0152229825 -0.23400562 -0.2765679 -0.21747044
-0.29061937 -0.051968582 -0.28508312 -0.017851597 -0.29703242 -0.27869585 0.020933703 -0.374463
-0.23799562 0.009336601 -0.18793806 -0.39860672 -0.38267356 -0.32405585 0.15041524 -0.28279862
-0.30117658 -0.4142564 0.15851448 -0.31618255 0.24698804 0.18951687 -0.27821228 -0.41881645
-0.29668963 -0.0026347826 -0.25890097 0.115049995 -0.08054839 0.0075365794 -0.2279225 -0.29138288
-0.38789526 0.04028253 0.10654896 -0.04689124 -0.30719408 -0.28750843 0.09685186 -0.056552626
0.16316889 0.08195342 -0.32523316 -0.36937228 -0.30347288 -0.35317844 0.019188443 -0.34415996
-0.2482545 -0.25681645 -0.24892998 -0.009178005 -0.30364245 0.05733686 -0.29422185 0.12779737
-0.05378389 -0.02602914 -0.24779722 0.041222088 -0.25712466 0.053823754 0.15790889 0.15383303
-0.27283722 0.008329246 -0.27025476 -0.23613642 -0.28720477 0.0609903 -0.25970498 -0.36976156
-0.33377004 0.006006686 0.040615343 0.0045349156 -0.22441879 -0.035921972 -0.25947976 -0.29646507
-0.054695353 -0.33867687 -0.06286239 -0.05166231 -0.35076213 -0.23699471 -0.05201053 -0.02370687
-0.2576195 -0.39370087 -0.018740507 -0.30692914 -0.28701073 -0.04642356 0.12069558 -0.27401456
-0.24906856 -0.25156835 0.010666934 -0.29880166 -0.35427925 0.043246996 0.0627882 0.0497723
-0.054939006 -0.0055660238 -0.32820895 -0.16995692 -0.0387297 -0.13718434 -0.3586556 -0.2168503
-0.19389473 -0.30293483 -0.07537971 -0.23119578 -0.08982281 0.10359334 -0.2754017 -0.27389807
-0.25928375 0.008309601 8.518138e-06 -0.19825995 0.042017754 -0.2692337 0.06896366 -0.48778805
-0.3470809 -0.029326065 0.14773856 -0.00414541 -0.23722136 0.15576439 -0.23809932 -0.3253628
0.07895208 0.11910663 -0.024738729 0.20593017 0.24586236 -0.2910408 -0.25187328 0.03797481
-0.015436511 0.013091715 -0.38331655 -0.3074264 -0.045292776 -0.2632727 -0.31835264 0.11255656
-0.06766509 -0.32131633 0.11646455 -0.45596743 0.027707832 0.21398899 -0.35518906 -0.25065383
-0.2968642 -0.2879349 -0.022300433 -0.027981766 -0.30714858 0.10510207 -0.25620964 -0.0076923524
-0.29024503 -0.3857332 0.12569544 -0.06940637 -0.21903019 -0.26226458 -0.31596926 -0.11287987
-0.25614884 0.018976798 0.2703331 -0.013777406 0.021471867 -0.0815381 -0.035394672 -0.36676323
00000000: fad2 4fbe 161c 18bd d849 1ebe 6329 3ebe
00000010: f863 b93c 8f07 95be 1ccb 8bbe 2b60 743c
00000020: e430 3a3e 365c 003c 1990 4abd bf2d 47bc
00000030: 4fed 4e3d 961a 8cbe 0d4d adbe 66f9 583d
00000040: f7dc 99be f8ab 063d bec5 61bc 474f 57be
00000050: 79c6 83be 955d 13be 0a3a b63d baf5 a8be
00000060: c137 abbe 6a09 96be 3cc1 ec3d cea3 17bd
00000070: 1378 8abe 8ada 3abc 73fb a4be c093 9ebe
00000080: 3de5 b8be cc05 9ebe 32b3 023e e6ab 96be
00000090: 36e2 163d bc1f 913e 9d96 57bd 698f 78be
000000a0: e3c6 87be 8102 24bd 1006 74be 2346 b33d
000000b0: df99 55be 2bf1 44be 4da2 7ebe d597 aabe
000000c0: 0f97 4dbd 201b 90be 02b6 aebd fd67 bebe
000000d0: 09eb 6ebe 0ca8 69be 7cb4 abbe 4c1c 72bb
000000e0: 2653 6ebe 6d8d a13d 47b0 91be d3e1 85be
000000f0: 6df6 71be b4d9 d03c 5502 89be 0f33 9fbe
00000100: ad50 82be 5e96 e3be 9636 103d 1ea9 97bb
00000110: d169 793c 2b9f 6fbe 4f9a 8dbe 92b0 5ebe
00000120: 10cc 94be 02dd 54bd 6af6 91be 833d 92bc
00000130: a214 98be 39b1 8ebe 287d ab3c 9db9 bfbe
00000140: 20b5 73be 8bf8 183c d672 40be 2e16 ccbe
00000150: caed c3be a6ea a5be 7406 1a3e fbca 90be
00000160: d133 9abe 6a19 d4be 9f51 223e aee2 a1be
00000170: 6fea 7c3e b610 423e d771 8ebe 1c6f d6be
00000180: b4e7 97be 51ac 2cbb ab8e 84be 559f eb3d
00000190: 8ef6 a4bd 69f5 f63b 8464 69be 2330 95be
000001a0: 359a c6be 4bff 243d 5736 da3d 0711 40bd
000001b0: 8b48 9dbe 4e34 93be 455a c63d baa3 67bd
000001c0: bf15 273e 32d7 a73d f684 a6be 5d1e bdbe
000001d0: cc60 9bbe ced3 b4be 1531 9d3c bc35 b0be
000001e0: 6d36 7ebe 727d 83be 80e7 7ebe 585f 16bc
000001f0: 0677 9bbe 0eda 6a3d 3fa4 96be 50dd 023e
00000200: 7f4c 5cbd 103b d5bc 8ebe 7dbe 7ed8 283d
00000210: d8a5 83be 4c76 5c3d deb2 213e 6886 1d3e
00000220: 52b1 8bbe 6477 083c d55e 8abe bfcd 71be
00000230: 810c 93be f7d0 793d 0df8 84be 6351 bdbe
00000240: e8e3 aabe bcd3 c43b 465c 263d a199 943b
00000250: 0ace 65be eb22 13bd 88da 84be 45ca 97be
00000260: 3c08 60bd 0e67 adbe ffbd 80bd dc9b 53bd
00000270: 1897 b3be beae 72be fe08 55bd e934 c2bc
00000280: b4e6 83be 2993 c9be b185 99bc d125 9dbe
00000290: 12f3 92be a126 3ebd 3f2f f73d a34b 8cbe
000002a0: d40b 7fbe 91cd 80be 5dc4 2e3c 88fc 98be
000002b0: 1764 b5be c323 313d 1a97 803d 0ade 4b3d
000002c0: b907 61bd 3163 b6bb 010b a8be 3009 2ebe
000002d0: 09a3 1ebd 0d7a 0cbe b5a1 b7be 010e 5ebe
000002e0: 578c 46be 461a 9bbe ad60 9abd 96be 6cbe
000002f0: 05f5 b7bd bf28 d43d 7401 8dbe 5e3c 8cbe
00000300: d7c0 84be fe24 083c 20e9 0e37 a804 4bbe
00000310: cf1a 2c3d 00d9 89be d23c 8d3d 5bbf f9be
00000320: 96b4 b1be 373d f0bc c748 173e 38d6 87bb
00000330: 28ea 72be b380 1f3e 4fd0 73be f495 a6be
00000340: a1b1 a13d 2dee f33d e0a8 cabc 5cdf 523e
00000350: 58c3 7b3e 4d03 95be 89f5 80be 798b 1b3d
00000360: 6be9 7cbc a27e 563c 1142 c4be fe66 9dbe
00000370: eb84 39bd aecb 86be 1eff a2be 0e84 e63d
00000380: ff93 8abd 9383 a4be f784 ee3d 9074 e9be
00000390: 89fb e23c ee1f 5b3e 57db b5be b355 80be
000003a0: 96fe 97be 346c 93be 66af b6bc 043a e5bc
000003b0: 9442 9dbe c13f d73d e92d 83be 2110 fcbb
000003c0: ff9a 94be d27e c5be 4eb6 003e ed24 8ebd
000003d0: 7349 60be 8b47 86be b9c6 a1be 902d e7bd
000003e0: f125 83be 3b75 9b3c 1a69 8a3e a1ba 61bc
000003f0: c5e5 af3c 73fd a6bd 01fa 10bd 64c8 bbbe
