models/lr_model_latest.onnx (onnx, 7219 bytes, 12 tensors)

sparse_weights.0.weight f4 [4, 1]
00000000: 8549 713f 2fd3 acbf caa5 f0be 7860 abbf
0.94252807 -1.3501948 -0.47001487 -1.3388815

sparse_weights.1.weight f4 [3, 1]
00000000: 658f c5be dbfd d83e 5964 11c0
-0.38585964 0.42381176 -2.2717497

sparse_weights.2.weight f4 [3, 1]
00000000: 6d99 93be c34e d2be 4b63 d3be
-0.28827992 -0.41075715 -0.41286692

sparse_weights.3.weight f4 [3, 1]
00000000: a76a 16bf c8aa 903e 9d2d d9bd
-0.5875649 0.28255296 -0.10604403

sparse_weights.4.weight f4 [3, 1]
00000000: 89cf 89bf cfd9 86bf 5c7f 93be
-1.076646 -1.053522 -0.28808105

sparse_weights.5.weight f4 [4, 1]
00000000: 306d 75bf 4875 86bf 05fb 87bf f071 0040
-0.9586973 -1.0504541 -1.062348 2.0069542

sparse_weights.6.weight f4 [3, 1]
00000000: a662 18bf 2e82 dcbe 2ce9 eabe
-0.59525526 -0.4306807 -0.4588102

sparse_weights.7.weight f4 [3, 1]
00000000: a9ba 3dbf 253c e8be ff04 8abf
-0.74112946 -0.45358387 -1.0782775

sparse_weights.8.weight f4 [3, 1]
00000000: 3950 a03f a3b4 08be 6ffd 153e
1.2524482 -0.13350157 0.14647458

sparse_weights.9.weight f4 [7, 1]
00000000: 1abd 7abf 50f0 76bf 9932 463f eaef 993e
00000010: c5fd cdbe 1dbd 0a3f 37be a0bf
-0.97944796 -0.9646044 0.77420956 0.30065852 -0.40232673 0.54194814 -1.2558049

sparse_weights.10.weight f4 [3, 1]
00000000: 21d1 7dbf add0 9b3f 6f8f 7f3e
-0.9914723 1.2173058 0.2495706

dense_weights.weight f4 [1, 5]
00000000: a549 b53e 1ed1 eebd 702d 353e 58ed 82be
00000010: 0bc1 953e
0.3540775 -0.1166098 0.17693114 -0.25571704 0.29248843
