models/lr_model_latest.onnx (onnx, 7219 bytes, 12 tensors)

sparse_weights.0.weight f4 [4, 1]
000000 5d 4a f0 3f 99 a6 81 bd 10 d2 80 3f 72 47 26 be
       1.8772694 -0.06330604 1.0064106 -0.16238192

sparse_weights.1.weight f4 [3, 1]
000000 33 5c 59 bd 70 0e 56 be d8 86 46 3f
       -0.053066444 -0.20903945 0.77549505

sparse_weights.2.weight f4 [3, 1]
000000 c9 87 df 3d 66 26 20 3f 0f ff ad be
       0.10914571 0.6255859 -0.33983657

sparse_weights.3.weight f4 [3, 1]
000000 af 4f 31 3f 4b 31 af 3d d8 c2 5e 3f
       0.6926221 0.08554324 0.8701606

sparse_weights.4.weight f4 [3, 1]
000000 e2 5f 41 3f 94 57 0b bf e2 a9 87 3f
       0.7553693 -0.5443051 1.0598719

sparse_weights.5.weight f4 [4, 1]
000000 fa 8c 70 3f 21 63 cf 3e 8d 36 28 bf 9f 38 d8 bf
       0.93965113 0.40505317 -0.6570824 -1.6892279

sparse_weights.6.weight f4 [3, 1]
000000 a4 83 d9 3e 6c 88 97 bf ec 6a 68 3f
       0.42483246 -1.1838508 0.9078815

sparse_weights.7.weight f4 [3, 1]
000000 98 78 bd be 9c 2a b1 3f 3c 80 02 3f
       -0.37006068 1.3841128 0.5097692

sparse_weights.8.weight f4 [3, 1]
000000 93 1c cb 3f 3c a9 d6 bf a4 04 88 bd
       1.5868095 -1.6770396 -0.0664151

sparse_weights.9.weight f4 [7, 1]
000000 b8 ec 29 3e a2 84 a3 3f 0f 00 37 bf da dc 2e be
       0.16594207 1.2774851 -0.71484464 -0.17076436
000010 8d e6 4c bf c0 0b ed bf 9b 02 bb bf
       -0.8003929 -1.8519211 -1.461017

sparse_weights.10.weight f4 [3, 1]
000000 bf cd 4f 3e 24 7d cb 3d 55 98 8f 3f
       0.2029333 0.09935978 1.1218363

dense_weights.weight f4 [1, 5]
000000 b2 86 19 3d 45 bf bf be c5 fd ba 3d c5 ee 31 be
       0.03748197 -0.37450615 0.09130434 -0.1737624
000010 3d 0b 98 3e
       0.29696074
